…
=None
[34m[1mtrain:[0m /home/agrilab/Documentos/Casanova/Arvores/Dataset/dados/madeira_transversal/train... found 1080 images in 18 classes ✅
[34m[1mval:[0m /home/agrilab/Documentos/Casanova/Arvores/Dataset/dados/madeira_transversal/val... found 216 images in 18 classes ✅
[34m[1mtest:[0m /home/agrilab/Documentos/Casanova/Arvores/Dataset/dados/madeira_transversal/test... found 864 images in 18 classes ✅
Overriding model.yaml nc=1000 with nc=18

                   from  n    params  module                                       arguments
  0                  -1  1      1392  ultralytics.nn.modules.conv.Conv             [3, 48, 3, 2]
  1                  -1  1     41664  ultralytics.nn.modules.conv.Conv             [48, 96, 3, 2]
  2                  -1  2    111360  ultralytics.nn.modules.block.C2f             [96, 96, 2, True]
  3                  -1  1    166272  ultralytics.nn.modules.conv.Conv             [96, 192, 3, 2]
  4                  -1  4    813312  ultralytics.nn.modules.block.C2f             [192, 192, 4, True]
  5                  -1  1    664320  ultralytics.nn.modules.conv.Conv             [192, 384, 3, 2]
  6                  -1  4   3248640  ultralytics.nn.modules.block.C2f             [384, 384, 4, True]
  7                  -1  1   2655744  ultralytics.nn.modules.conv.Conv             [384, 768, 3, 2]
  8                  -1  2   7084032  ultralytics.nn.modules.block.C2f             [768, 768, 2, True]
  9                  -1  1   1008658  ultralytics.nn.modules.head.Classify         [768, 18]
YOLOv8m-cls summary: 80 layers, 15,795,394 parameters, 15,795,394 gradients, 41.9 GFLOPs
Transferred 228/230 items from pretrained weights
[34m[1mAMP: [0mrunning Automatic Mixed Precision (AMP) checks...
[34m[1mAMP: [0mchecks passed ✅
[34m[1mAutoBatch: [0mComputing optimal batch size for imgsz=224 at 60.0% CUDA memory utilization.
[34m[1mAutoBatch: [0mCUDA:0 (NVIDIA GeForce RTX 4080) 15.60G total, 0.18G reserved, 0.16G allocated, 15.25G free
…
