…
, workspace=None
[34m[1mtrain:[0m /home/agrilab/Documentos/Casanova/Arvores/Dataset/dados/madeira_completo/train... found 1080 images in 18 classes ✅
[34m[1mval:[0m /home/agrilab/Documentos/Casanova/Arvores/Dataset/dados/madeira_completo/val... found 216 images in 18 classes ✅
[34m[1mtest:[0m /home/agrilab/Documentos/Casanova/Arvores/Dataset/dados/madeira_completo/test... found 864 images in 18 classes ✅
Overriding model.yaml nc=80 with nc=18

                   from  n    params  module                                       arguments
  0                  -1  1      1856  ultralytics.nn.modules.conv.Conv             [3, 64, 3, 2]
  1                  -1  1     73984  ultralytics.nn.modules.conv.Conv             [64, 128, 3, 2]
  2                  -1  1    111872  ultralytics.nn.modules.block.C3k2            [128, 256, 1, True, 0.25]
  3                  -1  1    590336  ultralytics.nn.modules.conv.Conv             [256, 256, 3, 2]
  4                  -1  1    444928  ultralytics.nn.modules.block.C3k2            [256, 512, 1, True, 0.25]
  5                  -1  1   2360320  ultralytics.nn.modules.conv.Conv             [512, 512, 3, 2]
  6                  -1  1   1380352  ultralytics.nn.modules.block.C3k2            [512, 512, 1, True]
  7                  -1  1   2360320  ultralytics.nn.modules.conv.Conv             [512, 512, 3, 2]
  8                  -1  1   1380352  ultralytics.nn.modules.block.C3k2            [512, 512, 1, True]
  9                  -1  1    990976  ultralytics.nn.modules.block.C2PSA           [512, 512, 1]
 10                  -1  1    680978  ultralytics.nn.modules.head.Classify         [512, 18]
YOLO11m-cls summary: 106 layers, 10,376,274 parameters, 10,376,274 gradients, 39.6 GFLOPs
Transferred 294/296 items from pretrained weights
[34m[1mAMP: [0mrunning Automatic Mixed Precision (AMP) checks...
[34m[1mAMP: [0mchecks passed ✅
[34m[1mAutoBatch: [0mComputing optimal batch size for imgsz=224 at 60.0% CUDA memory utilization.
[34m[1mAutoBatch: [0mCUDA:0 (NVIDIA GeForce RTX 4080) 15.60G total, 0.15G reserved, 0.11G allocated, 15.34G free
…
